data.pth (torch, 9323 bytes, 6 tensors)

l1.weight f4 [8, 108]
0	0xbef166c6	-0.47148722
1	0xbd8a245b	-0.067452155
2	0x3ebf32e3	0.3734351
3	0x3fb04fbe	1.3774335
4	0xbf236faa	-0.6384226
5	0xbf297893	-0.66199607
6	0x3f80ecb4	1.0072236
7	0x3f4683a8	0.7754464
8	0x3dba75cb	0.091044985
9	0xbec519dc	-0.38496292
10	0xbf0554cb	-0.5208251
11	0xbefb224a	-0.49049598
12	0x3ea1b3a2	0.3158236
13	0x3ec8de3f	0.3923206
14	0x3f1998d9	0.5999885
15	0xbe202458	-0.15638864
16	0xbecd6fba	-0.40124303
17	0xbea2260d	-0.31669655
18	0xbe865457	-0.2623622
19	0xbef1623e	-0.47145265
20	0x3f0557ce	0.52087104
21	0x3f65e665	0.8980468
22	0xbe694d82	-0.22783473
23	0x3e98fdfb	0.29881272
24	0x3f4c0853	0.797002
25	0x3f1a8bed	0.6036976
26	0xbe92c1f1	-0.2866359
27	0x3eefaa37	0.4680955
28	0x3f854a9a	1.0413392
29	0xbf2e8c2c	-0.68182635
30	0x3f5deed5	0.86692554
31	0x3f80a406	1.0050056
32	0x3f23643d	0.63824826
33	0xbd8bfecd	-0.06835709
34	0xbed04468	-0.4067719
35	0xbe799333	-0.24372558
36	0xbef158fa	-0.47138196
37	0x3f9653e6	1.1744354
38	0x3f2b5700	0.66929626
39	0xbe80afc4	-0.251341
40	0xbcfca496	-0.0308402
41	0xbef14c92	-0.4712873
42	0x3d2521aa	0.040315308
43	0xbef48214	-0.47755492
44	0xbef18ed7	-0.4717929
45	0xbeeaaf4e	-0.45836872
46	0xbdcd8ac0	-0.1003623
47	0xbef1659f	-0.47147843
48	0x3f674907	0.90345806
49	0x3ddfe0e0	0.109315634
50	0xbee5b31c	-0.44863212
51	0xbea674c3	-0.32510957
52	0x3e840676	0.2578618
53	0x3f326c86	0.69696844
54	0x3f5082b2	0.81449425
55	0x3ebf62cd	0.37380067
56	0x3f42175c	0.75816894
57	0x3f8e2d42	1.1107562
58	0x3d4c716f	0.049912866
59	0xbed34e1c	-0.4127053
60	0xbd3c9bcc	-0.046047017
61	0xbec3fb3f	-0.38277623
62	0x3d796677	0.060888734
63	0x3f0df0ce	0.55445564
64	0x3e39ac78	0.18132198
65	0xbb8b1b2e	-0.0042451834
66	0x3f3024a3	0.68805903
67	0x3e62bf1e	0.22143218
68	0x3e1b2507	0.15150844
69	0xbc18c41e	-0.009324102
70	0x3f616282	0.88040936
71	0x3f0546b8	0.52061033
72	0x3fb832fc	1.4390559
73	0x3e7b59b3	0.24545936
74	0x3ec3dd37	0.3825471
75	0xbef177fa	-0.47161847
76	0x3d820a62	0.063496366
77	0x3e885ec0	0.2663479
78	0x3f14ae95	0.5807889
79	0x3d790a76	0.060800992
80	0x3f042a7c	0.51627326
81	0xbec56c38	-0.38559127
82	0xbeed1129	-0.46302155
83	0xbeb90d08	-0.36142755
84	0x3ea965f3	0.33085594
85	0xbe73ae84	-0.23797041
86	0x3fd3402e	1.6503961
87	0xbef152cb	-0.4713348
88	0x3f4f0618	0.80868673
89	0xbf34fb02	-0.7069551
90	0xbdb92986	-0.09041123
91	0xbe443e0b	-0.19164293
92	0xbd3dedee	-0.046369486
93	0x3e79d311	0.24396922
94	0xbed0c061	-0.40771773
95	0x3ca2b117	0.019859834
96	0xbf834ea4	-1.0258374
97	0x3ebc549f	0.3678331
98	0x3ee2a339	0.44265154
99	0x3f65d223	0.8977377
100	0xbf316b91	-0.6930476
101	0x3ec894aa	0.39175922
102	0x3f0d1175	0.5510476
103	0xbe1d512d	-0.15362997
104	0x3db218d6	0.08696143
105	0xbef17b02	-0.4716416
106	0x3eceecc8	0.40415025
107	0xbf2ad315	-0.66728336
108	0x3f2b2eb3	0.6686813
109	0xbf70768f	-0.93930906
110	0xbea14bce	-0.31503147
111	0x3f1f0017	0.6210951
112	0x3f3d5e95	0.73972446
113	0x3f749131	0.95534045
114	0xbec520b2	-0.38501507
115	0x3f0df0cc	0.5544555
116	0xbed89c07	-0.4230654
117	0xbdabc3dd	-0.08386967
118	0xbf0cf170	-0.55055904
119	0x3e42d6a1	0.19027187
120	0x3e6d5fb2	0.23181036
121	0x3e0791ff	0.13239287
122	0x3d9e1ec0	0.07720709
123	0x3ebdf5b8	0.3710153
124	0x3ee8cb32	0.45467526
125	0x3f22adf8	0.63546705
126	0x3e8de1b1	0.2771125
127	0x3f548635	0.83017284
128	0xbe944bca	-0.28964072
129	0xbee23ec5	-0.44188514
130	0xbf5284a1	-0.82233626
131	0x3f65e0ef	0.89796346
132	0x3e929d85	0.28635803
133	0xbe9a1d9a	-0.3010071
134	0xbf84bcf8	-1.0370169
135	0x3e91b6af	0.2845969
136	0xbf0008df	-0.50013536
137	0x3d8abf4f	0.067747705
138	0x3efc4e77	0.49278614
139	0xbeb4ae4c	-0.35289228
140	0xbeec88ab	-0.4619802
141	0xbe2223c5	-0.15833957
142	0x3ec33410	0.38125658
143	0xbe9f0f1e	-0.3106622
144	0x3f4d8e4f	0.8029527
145	0xbf8388c9	-1.0276119
146	0x3f301287	0.6877827
147	0x3fafa5eb	1.3722509
148	0x3e3a29eb	0.18180053
149	0xbf0807f9	-0.53137165
150	0x3f06a1ea	0.5259081
151	0xbf5e6176	-0.86867464
152	0xbf0d4dcb	-0.5519683
153	0xbf010216	-0.5039381
154	0x3fac3f6b	1.3456854
155	0x3f560122	0.8359548
156	0xbe967532	-0.29386288
157	0xbf62dcf3	-0.8861839
158	0x3f0d4eb4	0.55198216
159	0x3ec97927	0.39350244
160	0x3f09c595	0.5381711
161	0xbed336fc	-0.41252887
162	0xbef79ab5	-0.4836022
163	0xbed18cee	-0.40927833
164	0x3f57a38c	0.8423393
165	0x3e95a88e	0.2923016
166	0x3da25939	0.07927174
167	0x3e6a27c2	0.22866729
168	0xbdba1538	-0.090860784
169	0xbcac7e2a	-0.021056253
170	0x3d017e6f	0.031614717
171	0xbe6fac8b	-0.23405664
172	0xbf377d36	-0.7167543
173	0x3ef3d4f7	0.47623417
174	0x3f8e822a	1.1133473
175	0x3f751d05	0.95747405
176	0xbf21b14a	-0.63161147
177	0x3e9a4e09	0.3013766
178	0xbf60fe6a	-0.87888205
179	0x3ea80762	0.32818133
180	0x3efe447a	0.49661618
181	0xbee40c18	-0.44540477
182	0x3e8a13d1	0.26968244
183	0xbe380a2d	-0.17972632
184	0x3dfdbc4f	0.12389433
185	0x3e8a3e62	0.2700072
186	0x3effc811	0.49957326
187	0xbd456ebc	-0.048201308
188	0xbeb03010	-0.3441167
189	0xbe55d7f0	-0.20883155
190	0x3e0a6dab	0.13518398
191	0x3f75cd57	0.9601645
192	0x3e98c905	0.29840866
193	0x3f6a8a83	0.916176
194	0x3f3c651e	0.7359179
195	0x3f84e595	1.0382563
196	0x3f8f5712	1.1198447
197	0x3fa830d1	1.3139898
198	0x3f0e6428	0.55621576
199	0x3e6d6532	0.23183134
200	0xbf0e8804	-0.55676293
201	0x3ec8cf17	0.39220497
202	0xbe0a4051	-0.13501097
203	0xbe712193	-0.23547964
204	0xbf6c372b	-0.9227168
205	0xbe8b251d	-0.27176753
206	0xbe971de4	-0.29514992
207	0xbe6a12fc	-0.22858804
208	0x3fa3e2bf	1.2803572
209	0x3db84fe0	0.0899961
210	0x3f1affe7	0.60546726
211	0x3ec06222	0.3757487
212	0x3e8ae06a	0.2712434
213	0x3f7f637e	0.9976119
214	0x3f2685c4	0.6504786
215	0x3f9084f7	1.1290578
216	0x3efecc81	0.497654
217	0x3f34bc07	0.70599407
218	0x3f0149ef	0.5050344
219	0x3ea9b4e2	0.33145815
220	0x3efbd5b0	0.49186468
221	0x3fba2f19	1.4545623
222	0xbf6e61bc	-0.9311788
223	0xbd17ce27	-0.037061837
224	0x3f185f40	0.5952034
225	0x3f5a9cab	0.85395306
226	0xbf125580	-0.5716171
227	0xbddfd6d6	-0.109296486
228	0x3d45b97a	0.048272587
229	0x3e8246ea	0.25444728
230	0xbebaca56	-0.36482495
231	0x3f5cdbf0	0.862731
232	0x3f10ce10	0.56564426
233	0x3f678ca5	0.9044898
234	0x3ed62ad4	0.4182955
235	0xbf5850d0	-0.8449831
236	0xbe9623e7	-0.29324266
237	0xbea87197	-0.32899162
238	0xbf39cd71	-0.72579104
239	0x3edc5af1	0.43038133
240	0x3f015ded	0.50533944
241	0xbdb25638	-0.08707851
242	0xbf6a8367	-0.91606754
243	0x3e65fa7c	0.22458833
244	0xbee31ec0	-0.44359398
245	0xbf7b1f60	-0.9809475
246	0x3da827b5	0.082106985
247	0xbee27a60	-0.4423399
248	0x3e84bf97	0.2592742
249	0x3f4f41af	0.809596
250	0x3ed5a34d	0.4172615
251	0xbf7b323a	-0.98123515
252	0xbf78e706	-0.97227514
253	0x3e9eaa6d	0.309894
254	0x3e539737	0.20663153
255	0x3d6e5f30	0.058196247

l1.bias f4 [8]
0	0x3ef0e400	0.4704895
1	0x3f8369de	1.0266683
2	0x3f7b29cf	0.9811067
3	0x3f543862	0.82898533
4	0x3fb58e14	1.4183984
5	0x3f4b784c	0.79480433
6	0x3f629b6a	0.88518393
7	0x3f92c2b4	1.1465669

l2.weight f4 [8, 8]
0	0xbf993761	-1.1970025
1	0x3fadbaac	1.3572593
2	0x3f908afa	1.1292412
3	0x3f80e01b	1.0068392
4	0xbf4d087a	-0.8009106
5	0x3fe27584	1.7692113
6	0xbfd6de82	-1.6786654
7	0x3f810d1a	1.0082123
8	0xbee7caac	-0.45271814
9	0x400de519	2.217108
10	0x40060144	2.0938272
11	0xbfa77e58	-1.3085432
12	0xbf3599ef	-0.7093801
13	0x3e5558e4	0.2083469
14	0x3fd323a3	1.649525
15	0xbed02868	-0.40655828
16	0xbee91f87	-0.45531866
17	0xbedb7557	-0.4286296
18	0xbece43da	-0.40286142
19	0xbeb7f6df	-0.35930535
20	0xbdd0329c	-0.10165903
21	0x401b6610	2.4281044
22	0x3f879c08	1.0594492
23	0x3fc4e8b1	1.5383512
24	0xc0019beb	-2.0251415
25	0x3faa059f	1.3282965
26	0xbfd0261f	-1.6261634
27	0xbe9d5a1e	-0.30732816
28	0x40300b19	2.7506773
29	0x3e809458	0.25113177
30	0x3fc4b5ca	1.5367978
31	0x3fdd4b9e	1.7288702
32	0x40227e9e	2.538978
33	0xbf462f64	-0.7741606
34	0x3f0c7d4b	0.5487868
35	0x4036c57a	2.855803
36	0xbf387c7c	-0.7206495
37	0x3fb98e79	1.4496604
38	0x3f6f19c2	0.9339868
39	0x3fd0486b	1.62721
40	0x3eb7823a	0.35841542
41	0x3fdd21ea	1.7275975
42	0x3f1c5df0	0.6108084
43	0x3de7cc4c	0.113182634
44	0x4026c949	2.6060355
45	0xbff9b7f4	-1.9509263
46	0x3ebc422c	0.36769235
47	0x3fe99b7d	1.8250576
48	0x3fd851d2	1.689997
49	0x3fda8e67	1.7074708
50	0xbed8a5b1	-0.42313913
51	0xbe9fc537	-0.3120515
52	0xbf61001f	-0.8789081
53	0x3f750762	0.9571439
54	0x3f9117a8	1.1335344
55	0x3f7c2fd2	0.9851047
56	0xbc4bfe37	-0.012450746
57	0x3f559cce	0.8344239
58	0x3faae96e	1.3352487
59	0x3fc42528	1.5323839
60	0x3ff280d3	1.8945564
61	0xbec40018	-0.38281322
62	0xc010059e	-2.2503428
63	0xbdc00ecf	-0.093778245

l2.bias f4 [8]
0	0x3f6285d3	0.8848545
1	0x3f3717c7	0.71520656
2	0x3fc3a098	1.5283384
3	0x3f735a04	0.9505923
4	0xbf190974	-0.5978005
5	0x3e29bd64	0.16576153
6	0xbf82b073	-1.0210098
7	0x3f1731bd	0.5906027

l3.weight f4 [42, 8]
0	0xbf3a888a	-0.7286459
1	0x3f08e494	0.5347378
2	0xc01c0069	-2.437525
3	0xbeb21d2a	-0.34787875
4	0xbf7738b9	-0.96570927
5	0x3f01b021	0.50659376
6	0xc042b488	-3.0422688
7	0x3ea23190	0.31678438
8	0x3e92e4a5	0.28690067
9	0x3f4d366f	0.80161184
10	0x3f1355b1	0.5755263
11	0xc02e8178	-2.7266521
12	0x3eb0c735	0.34526983
13	0xc0260688	-2.5941486
14	0xbf29e1c9	-0.66360146
15	0xc00fff0e	-2.2499423
16	0x3e4ef711	0.20211436
17	0x3e7d574b	0.24740331
18	0xbf120d14	-0.57051206
19	0xbf1f258e	-0.6216668
20	0xbe9c2f3f	-0.30504796
21	0xbe909d80	-0.28245163
22	0x3e462bea	0.1935269
23	0xbf4a112b	-0.78932446
24	0x3ebb7a1e	0.36616606
25	0x3f4e0329	0.8047357
26	0xbe4b4a57	-0.19852577
27	0xc03b3382	-2.9250188
28	0xbe74197a	-0.23837844
29	0xbf15ff1b	-0.58592385
30	0xc036f375	-2.8586094
31	0x3ea26be9	0.31722954
32	0x3d9f0950	0.07765448
33	0xc048f98a	-3.1402307
34	0xbf0d975a	-0.5530907
35	0xbf015cf6	-0.5053247
36	0xbe6abe76	-0.22924218
37	0x3ec2872a	0.37993747
38	0xbf084568	-0.53230906
39	0x3d4d0df2	0.050062127
40	0x3f470547	0.7774243
41	0x3f088021	0.5332051
42	0x3f0ef2d0	0.5583925
43	0xbf0a40db	-0.5400521
44	0xc05cd274	-3.450345
45	0xbcf8f56f	-0.03039047
46	0xbfb87fd8	-1.4414015
47	0xbbd3bae9	-0.0064614904
48	0x3e786880	0.24258614
49	0xbe5db606	-0.21651468
50	0xbe53d0a2	-0.20685056
51	0xc0619949	-3.5249808
52	0xbdaaf54f	-0.0834757
53	0xbec2cc08	-0.38046288
54	0xbe6b11a1	-0.22955944
55	0x3ea3e638	0.3201158
56	0xbfe541a8	-1.7910662
57	0xbfea009e	-1.8281438
58	0x3e81b5ba	0.2533396
59	0x3e571fd0	0.2100823
60	0x3f0e18c8	0.55506563
61	0x3d5d80ac	0.05407779
62	0xbe3e30f4	-0.18573362
63	0xc0180cb0	-2.3757744
64	0x3f0d833a	0.5527836
65	0xc0178d4e	-2.3679996
66	0x3e537662	0.20650628
67	0xbf8838a7	-1.0642289
68	0x3e01753f	0.12642382
69	0xbf68c6ec	-0.9092853
70	0xbf9b719b	-1.2144045
71	0x3ef2aab8	0.47395873
72	0xbc3e5d1d	-0.01161888
73	0xbf51fb03	-0.8202364
74	0x3e8ef261	0.27919295
75	0x3de6c3cd	0.11267815
76	0xbea6ff2d	-0.3261656
77	0xbe37101d	-0.1787724
78	0x3dda78fc	0.10667607
79	0xc048d9dc	-3.138297
80	0xc02e816c	-2.7266493
81	0xbc8d0e95	-0.017218867
82	0xbecd0c48	-0.40048432
83	0x3e582ca2	0.21110776
84	0xbdf57c7a	-0.11986633
85	0x3ea33044	0.3187276
86	0x3c332cde	0.01093599
87	0xbfa33627	-1.2750901
88	0xbf1cf459	-0.61310345
89	0xbf6ad270	-0.9172735
90	0x3f339305	0.7014621
91	0xbe0ffc05	-0.14060982
92	0x3e9d0748	0.30669618
93	0xc009da7c	-2.1539602
94	0x3ecb13c1	0.3966351
95	0xbfcc05fe	-1.5939329
96	0xc0247cca	-2.5701165
97	0x3ed7b0fc	0.42127216
98	0x3ee17c7b	0.44040284
99	0xbf7cb69d	-0.98716146
100	0x3e840d63	0.25791463
101	0xbfed321f	-1.8530921
102	0x3f2f94ab	0.68586224
103	0xbfac1fc6	-1.3447196
104	0x3eacad60	0.33726025
105	0x3d47eacc	0.048807904
106	0xbf74dcdb	-0.956495
107	0xbf9b7cb0	-1.2147427
108	0xbeda4521	-0.42630866
109	0x3e851981	0.2599602
110	0xbf7bf4e3	-0.9842054
111	0x3e36b3a5	0.17841966
112	0xbe33934d	-0.1753666
113	0x3e8bee5b	0.27330288
114	0xbfa60f34	-1.297339
115	0xbe98be65	-0.2983276
116	0xbfcb9c26	-1.5907028
117	0x3e822d4e	0.2542519
118	0x3deca61e	0.11555122
119	0x3dabde5a	0.083920196
120	0xbf157f66	-0.5839752
121	0xbf8cd6cc	-1.1003051
122	0x3ea240e3	0.3169013
123	0xc00ef9aa	-2.2339883
124	0x3f6c2c71	0.9225531
125	0xc0154748	-2.3324757
126	0x3f232629	0.637301
127	0xc0119283	-2.2745674
128	0x3e7872ac	0.24262494
129	0xbf396f10	-0.7243509
130	0x3dae2128	0.08502418
131	0xbfdd02c9	-1.7266475
132	0x3e9dcb90	0.30819368
133	0xbede3718	-0.43401408
134	0x3f1fdbd0	0.6244478
135	0xbfa8bcfb	-1.3182672
136	0x3f118af0	0.56852627
137	0xbe7396f1	-0.23788048
138	0xc00ff2f7	-2.2492044
139	0xc000a1c5	-2.0098736
140	0x3eb19dc8	0.3469069
141	0xbf8e3270	-1.1109142
142	0xbf8ee3a5	-1.1163222
143	0x3ef9fe98	0.48827052
144	0x3e52d029	0.2058722
145	0xbf8f84dd	-1.1212422
146	0xbfee8ac5	-1.8636099
147	0xc00c25cf	-2.1898077
148	0x3e2dc7ba	0.16970721
149	0x3e10620c	0.14099902
150	0xc0276746	-2.6156783
151	0x3f0b06fd	0.5430754
152	0xbf2f6d81	-0.68526465
153	0xbec92913	-0.3928915
154	0x3da84c73	0.082177065
155	0x3f5a5f3a	0.85301554
156	0xc054ff1c	-3.3280706
157	0x3ed78425	0.42093006
158	0xbf83b433	-1.0289367
159	0xbf02232e	-0.5083493
160	0x3ee6bbba	0.450651
161	0xc02297f7	-2.5405252
162	0x3ef7835b	0.48342404
163	0x3e56ddcc	0.20983046
164	0xbf02a32f	-0.5103025
165	0xbebac16a	-0.36475688
166	0xbed1b629	-0.4095929
167	0xbf187f01	-0.5956879
168	0xbf42d9a7	-0.7611336
169	0xbfcab132	-1.5835326
170	0x3e82869c	0.25493324
171	0x3f143ae6	0.5790237
172	0xbf244ed2	-0.6418277
173	0x3f04c24f	0.5185899
174	0xc04d649b	-3.2092655
175	0xbe9c4a0b	-0.3052524
176	0xc05c10ca	-3.4385247
177	0x3f4d7f62	0.80272496
178	0x3ed45a0d	0.41474953
179	0x3f283681	0.65708166
180	0xbf2f4637	-0.68466514
181	0xbf940e30	-1.156683
182	0x3eaf2cc2	0.34213835
183	0xc0383037	-2.8779428
184	0xc0507591	-3.2571757
185	0x3dcbd51b	0.09952756
186	0x3ef64305	0.48098007
187	0x3f5c4b03	0.8605196
188	0xbfee7515	-1.8629481
189	0x3ebb75a2	0.36613184
190	0xbe5e86e6	-0.21731147
191	0xc029a129	-2.6504614
192	0x3d6d3ba0	0.05791819
193	0xc00b2d41	-2.174637
194	0xc0264b92	-2.5983624
195	0xbeba0314	-0.36330473
196	0xbd31bfb1	-0.0433957
197	0x3e888e7c	0.26671207
198	0xc00d5c44	-2.2087564
199	0x3ec18512	0.37796837
200	0x3f2a40f8	0.66505384
201	0xbe7ec827	-0.2488104
202	0xbf1b9f33	-0.60789794
203	0xc021b507	-2.526674
204	0x3ea06574	0.31327403
205	0xc02f1e42	-2.7362218
206	0x3f261559	0.64876324
207	0xbe91f59f	-0.28507707
208	0xbfd0f7dc	-1.6325641
209	0xbf867e5e	-1.0507314
210	0xbfca731b	-1.5816377
211	0xbfc9ac18	-1.5755644
212	0xbe197e80	-0.14989662
213	0x3f2cb082	0.6745683
214	0xbf0f68bc	-0.56019187
215	0x3f18da63	0.5970823
216	0x3f3ff178	0.7497783
217	0x3ee6894e	0.4502663
218	0x3ec96b0c	0.39339483
219	0xbfeadde7	-1.8348969
220	0xbf17eb7c	-0.59343696
221	0xbf4e6103	-0.8061678
222	0xbe807717	-0.25090858
223	0xbf381a79	-0.71915394
224	0xbe4dd9dc	-0.20102638
225	0x3f179995	0.5921872
226	0xba430ec1	-0.0007440858
227	0xbe6fe654	-0.23427707
228	0xbf07782b	-0.52917737
229	0xbf645662	-0.8919431
230	0x3eee0725	0.46489826
231	0xc019896c	-2.3990126
232	0xbe8a04b0	-0.269567
233	0x3cb6a9e5	0.022297809
234	0xc0394c30	-2.895275
235	0xc0169232	-2.352673
236	0x3e6b552c	0.22981709
237	0x3e75348d	0.23945828
238	0x3e88e1c9	0.2673476
239	0xbe7e841f	-0.24855088
240	0x3f2704c0	0.6524162
241	0x3e4774dc	0.19478172
242	0x3f453661	0.770361
243	0x3edef523	0.435464
244	0xbf290619	-0.6602493
245	0xc02e7430	-2.7258415
246	0xbf194335	-0.59868175
247	0xc031c8a1	-2.7778704
248	0x3ee68faf	0.45031497
249	0x3d9d3959	0.07676954
250	0xc00133c9	-2.0187857
251	0x3e567463	0.20942836
252	0xc04ae557	-3.1702478
253	0x3f29d26d	0.6633671
254	0xc01f585a	-2.4897676
255	0x3e6ffb54	0.23435718

l3.bias f4 [42]
0	0x3e38f6b6	0.18062863
1	0x3e99b5e6	0.3002159
2	0xbf59e7d5	-0.8511937
3	0xbdc9a61c	-0.09846136
4	0xbcbad980	-0.02280879
5	0x3f0b9e36	0.54538286
6	0xbebacea8	-0.3648579
7	0x3e8db5eb	0.27677855
8	0xbd5db49a	-0.054127313
9	0xbc6d4a17	-0.014482996
10	0xbe92c7b6	-0.28667992
11	0x3dfbc064	0.12292555
12	0xbdf34f43	-0.11880352
13	0x3c3c6ebe	0.011501012
14	0xbe5139f0	-0.20432258
15	0x3e6d0a64	0.23148495
16	0xbf78e5e3	-0.9722578
17	0xbe8b9bd4	-0.27267325
18	0xbc65501f	-0.013996153
19	0x3ea56129	0.3230069
20	0x3d97f1eb	0.07419189
21	0x3ee50720	0.44731998
22	0x3eb25a39	0.3483446
23	0xbd61c01a	-0.055114843
24	0x3dbdc239	0.09265561
25	0x3e3eb893	0.18625097
26	0x3eca4129	0.39502838
27	0x3de40774	0.11134234
28	0xbe3f607b	-0.18689148
29	0x3d3cc82c	0.046089336
30	0x3da3c4f0	0.07996547
31	0xbdbfbcf4	-0.09362212
32	0x3e94e6e0	0.29082394
33	0x3c3dfa1c	0.011595275
34	0x3eb9f281	0.36317828
35	0xbf2c1114	-0.6721356
36	0xbf0c73a9	-0.54863983
37	0x3efb2061	0.4904814
38	0x3e49002a	0.19628969
39	0x3d9f8afb	0.0779018
40	0xbe349210	-0.17633843
41	0x3f0507a6	0.51964796
